gesture_model.tflite (tflite, 138460 bytes, 6 tensors)

dense_9/bias f4 [50]
-0.0009076259 -0.0005615384 -0.0031622509 -0.00316225 -0.0031622397 -0.003162242 0.0 -0.0013730655
0.0 0.0 0.0 0.0 -0.0036634062 -0.0014740671 0.0 -0.0035838555
0.046961028 0.0 0.0 -0.002693497 -0.0012536133 -0.0031614595 -0.0031622534 -0.0028189018
0.0 -0.0035654558 0.0 0.0 0.0 0.0 -0.0008249941 0.0
0.0 0.0 0.0 0.0 -0.0010823997 0.0 0.010883148 -0.0045450116
-0.003162232 0.0 -0.0019004431 0.0 -0.0031622488 0.0 -0.0027152204 0.0
0.0 -0.004431569
00000000: beed 6dba 3434 13ba c43d 4fbb c03d 4fbb
00000010: 943d 4fbb 9e3d 4fbb 0000 0000 6ff8 b3ba
00000020: 0000 0000 0000 0000 0000 0000 0000 0000
00000030: c215 70bb 7c35 c1ba 0000 0000 1edf 6abb
00000040: 355a 403d 0000 0000 0000 0000 6285 30bb
00000050: 4850 a4ba 7d30 4fbb cf3d 4fbb 53bd 38bb
00000060: 0000 0000 6caa 69bb 0000 0000 0000 0000
00000070: 0000 0000 0000 0000 6b44 58ba 0000 0000
00000080: 0000 0000 0000 0000 0000 0000 0000 0000
00000090: 4fdf 8dba 0000 0000 3b4f 323c 52ee 94bb
000000a0: 733d 4fbb 0000 0000 4a18 f9ba 0000 0000
000000b0: bb3d 4fbb 0000 0000 d7f1 31bb 0000 0000
000000c0: 0000 0000 b236 91bb

dense_11/bias f4 [2]
-0.17904791 0.17905128
00000000: 5658 37be 3859 373e

dense_10/bias f4 [15]
-0.014078617 0.0036679984 0.035157565 -0.043741517 -0.0018925159 -0.02132454 0.17999873 -0.0064566466
0.0037392024 -0.0031622662 0.02140833 -0.0031622716 -0.007834196 -0.014562475 0.026479924
00000000: 00aa 66bc cd62 703b 6101 103d 4e2a 33bd
00000010: 4c0e f8ba cdb0 aebc 9651 383e 4792 d3bb
00000020: 680d 753b 063e 4fbb 8660 af3c 1d3e 4fbb
00000030: 005b 00bc 7297 6ebc 6dec d83c

sequential_3/dense_9/MatMul f4 [50, 666]
-0.0036694305 -0.021194056 0.022823896 -0.08325336 0.031616226 0.08162415 -0.03642542 -0.039874416
0.018486913 0.078000695 -0.014603165 0.026508994 -0.08298516 0.014402877 0.05222009 -0.057137195
0.051495604 -0.078482814 0.08668329 -0.04017381 -0.08273815 -0.08274006 -0.012116393 -0.039584786
0.050668865 -0.05230694 -0.009483222 0.004937844 0.06601393 -0.04501807 0.017353844 0.06208138
0.00092601427 -0.082537755 -0.0895354 -0.02678281 0.0015043872 0.017822975 -0.05541868 0.07526911
-0.07349086 -0.06362263 -0.06339647 0.008485032 -0.0023848484 -0.05870739 0.065609604 0.03132621
-0.043482263 -0.08616932 -0.052691523 -0.0047162483 0.0050529516 -0.057955205 -0.085007496 -0.027326543
0.030095037 -0.054234102 -0.06409644 0.01165113 -0.033096883 -0.030978352 -0.07801356 -0.013985129
0.08162315 -0.049828447 -0.0077038696 0.052303664 0.0030010904 -0.061210748 -0.09016058 0.04470933
0.080524236 0.040973663 0.08293462 0.06328429 -0.019128818 -0.08735007 -0.0472063 0.0891208
-0.050836124 -0.072019584 0.013305087 -0.057681914 0.0073470008 -0.04158219 0.07131994 -0.03697301
-0.079410166 0.0004143694 -0.002846123 -0.06546545 0.008579904 0.016828656 -0.063035235 0.03489797
-0.010939299 0.02106074 0.0060071135 -0.007885508 -0.015853532 -0.019795153 0.045862433 0.01858252
-0.004163318 0.074299306 0.06561603 0.02775127 0.037237372 -0.04629376 0.011897778 0.054131318
-0.060519274 0.026877388 0.06515025 -0.009805944 -0.08345423 -0.07736198 0.078751504 0.07963253
-0.08397737 0.07236073 -0.06272128 0.056361046 -0.015320535 0.032163527 -0.011254796 -0.08841751
-0.059134107 0.042737573 0.08884914 0.08850973 -0.032739926 0.06445726 -0.00336956 -0.07672162
-0.022612488 -0.01427723 -0.026365524 -0.03443023 0.013137992 0.08775598 -0.07611006 0.025055267
-0.03823023 -0.06267539 -0.013852293 -0.05781212 -0.007901409 -0.01634136 -0.028769808 -0.08615955
-0.089988954 0.089236975 0.07667185 -0.0025353453 0.07467188 -0.03572475 -0.01462516 -0.05307851
0.07434716 -0.049434476 -0.032146253 -0.04404914 0.042440332 -0.087284155 0.07229822 0.0027030027
0.03472443 -0.041371413 0.079633504 0.038301192 0.042111687 -0.0106521845 -0.0016783266 0.055926014
0.08813223 -0.04972975 0.01753677 -0.056888435 -0.03513503 -0.045414414 0.017391447 0.018938206
0.024439108 0.014047658 0.03810388 -0.009266893 0.04741099 -0.060297314 -0.07630676 0.002931571
-0.07441819 0.065489024 0.049000658 0.039694432 0.076992474 -0.02545022 -0.06793719 0.035427563
-0.05557097 -0.014905279 -0.0891719 -0.07487324 -0.02767364 0.03258088 0.012887072 -0.05164753
-0.04712472 0.019526111 0.0059801014 0.07610786 0.050700724 -0.025449077 -0.05235496 -0.034665406
0.08457589 0.04226837 0.023533836 0.0137476465 0.07000411 0.05409061 0.06574392 0.053276047
0.035648625 -0.06940445 0.08283893 -0.051099163 -0.0017400549 -0.025112433 -0.070122376 -0.0217542
-0.052597977 -0.037974663 -0.05771441 0.0029760036 0.066372596 0.07553822 0.05174026 0.03728415
0.007620197 0.09027933 -0.07253276 -0.06874784 0.006145265 0.057840418 -0.014299218 0.01113796
0.04831032 0.08233489 0.028954055 -0.056462474 0.060827333 0.089810364 -0.0012372788 0.040711552
00000000: d47a 70bb 289f adbc 2ef9 ba3c bd80 aabd
00000010: 0480 013d 902a a73d d232 15bd 5b53 23bd
00000020: de71 973c d4be 9f3d 1d42 6fbc 6429 d93c
00000030: 20f4 a9bd 0bfa 6b3c bce4 553d b108 6abd
00000040: 0eed 523d 99bb a0bd 0287 b13d 4b8d 24bd
00000050: 9f72 a9bd 9f73 a9bd d683 46bc a823 22bd
00000060: 288a 4f3d cd3f 56bd 845f 1bbc a3cd a13b
00000070: 5032 873d de64 38bd a629 8e3c 0c49 7e3d
00000080: c4bf 723a 8e09 a9bd 565e b7bd a067 dbbc
00000090: dc2e c53a 7d01 923c b3fe 62bd b126 9a3d
000000a0: 6082 96bd 954c 82bd 02d6 81bd ce04 0b3c
000000b0: 1e4b 1cbb 2977 70bd 545e 863d e94f 003d
000000c0: 751a 32bd 8a79 b0bd 11d3 57bd c28a 9abb
000000d0: 3b93 a53b 7062 6dbd 6918 aebd eadb dfbc
000000e0: de89 f63c 9424 5ebd ff44 83bd 62e4 3e3c
000000f0: 9990 07bd 50c6 fdbc 93c5 9fbd e221 65bc
00000100: 0a2a a73d ea18 4cbd be70 fcbb 5e3c 563d
00000110: f1ad 443b 1fb8 7abd 1ca6 b8bd 2121 373d
00000120: e4e9 a43d 00d4 273d a0d9 a93d 329b 813d
00000130: 0ab4 9cbc 98e4 b2bd 655b 41bd f784 b63d
00000140: 8a39 50bd 017f 93bd 94fd 593c df43 6cbd
00000150: 1cbf f03b 1652 2abd 3010 923d 0371 17bd
00000160: cca1 a2bd b83f d939 0586 3abb c012 86bd
00000170: ba92 0c3c 40dc 893c 9e18 81bd 2cf1 0e3d
00000180: bf3a 33bc 9387 ac3c 52d7 c43b 3832 01bc
00000190: 44df 81bc 7229 a2bc 3fda 3b3d 5e3a 983c
000001a0: 716c 88bb 3c2a 983d b261 863d a256 e33c
000001b0: 3786 183d 879e 3dbd e6ee 423c cdb8 5d3d
000001c0: 0fe3 77bd f82d dc3c 7f6d 853d 1ca9 20bc
000001d0: 0dea aabd f56f 9ebd 7848 a13d 6116 a33d
000001e0: 54fc abbd dd31 943d 0474 80bd d7da 663d
000001f0: fb02 7bbc e7bd 033d 0966 38bc 3d14 b5bd
00000200: 9b36 72bd 980d 2f3d 8af6 b53d 9744 b53d
00000210: 4d1a 06bd 2b02 843d d6d3 5cbb 3a20 9dbd
00000220: d33d b9bc 0beb 69bc 83fc d7bc b606 0dbd
00000230: bb40 573c 68b9 b33d 97df 9bbd b440 cd3c
00000240: 4d97 1cbd f45b 80bd baf4 62bc 67cc 6cbd
00000250: e974 01bc 51de 85bc a9ae ebbc 6b74 b0bd
00000260: 214c b8bd e0c1 b63d 2206 9d3d 0928 26bb
00000270: 92ed 983d 1e54 12bd 5e9e 6fbc da68 59bd
00000280: 5343 983d ce7b 4abd caab 03bd df6c 34bd
00000290: ead5 2d3d 09c2 b2bd 1711 943d dc24 313b
000002a0: 343b 0e3d 1275 29bd e416 a33d b6e1 1c3d
000002b0: 4e7d 2c3d 8086 2ebc 4cfb dbba ad12 653d
000002c0: ac7e b43d 6cb1 4bbd 46a9 8f3c d903 69bd
000002d0: c0e9 0fbd 7704 3abd 8278 8e3c 4c24 9b3c
000002e0: 8634 c83c 2628 663c d012 1c3d 2bd4 17bc
000002f0: 0732 423d 51fa 76bd b846 9cbd 9a1f 403b
00000300: 9068 98bd 1c1f 863d eab4 483d a196 223d
00000310: 3bae 9d3d fb7c d0bc a722 8bbd 7e1c 113d
00000320: 639e 63bd 4535 74bc c29f b6bd 2457 99bd
00000330: d4b3 e2bc 8773 053d 4c24 533c 5c8c 53bd
00000340: da05 41bd 39f5 9f3c baf4 c33b 70de 9b3d
00000350: 90ab 4f3d 957a d0bc 2872 56bd 50fd 0dbd
00000360: 2036 ad3d 9921 2d3d 08ca c03c cf3d 613c
00000370: 515e 8f3d 1e8e 5d3d c0a4 863d fc37 5a3d
00000380: 4b04 123d ec23 8ebd 75a7 a93d 5b4d 51bd
00000390: 8e12 e4ba 97b8 cdbc 529c 8fbd dd35 b2bc
000003a0: fa70 57bd 528b 1bbd f265 6cbd 0e09 433b
000003b0: 5bee 873d c8b3 9a3d 98ed 533d 44b7 183d
000003c0: d8b2 f93b 5fe4 b83d 0e8c 94bd abcb 8cbd
000003d0: 385e c93b 13ea 6c3d 4447 6abc fd7b 363c
000003e0: 0be1 453d 329f a83d 0e31 ed3c 3245 67bd
000003f0: 1526 793d 7fee b73d 302c a2ba 28c1 263d

sequential_3/dense_10/MatMul f4 [15, 50]
0.12153903 -0.2530311 -0.09010945 -0.20896941 0.018540114 -0.13099058 -0.017843217 -0.09421748
-0.19841436 0.15481657 -0.08779104 0.20519221 0.024253577 -0.011620969 -0.2901477 -0.005697876
0.04421585 0.077705175 0.09606388 -0.29016268 0.24272513 0.2715565 0.18768308 0.29401416
0.2252804 -0.107111186 -0.13520901 0.21027547 0.20777434 -0.25481173 0.16141489 0.030615479
-0.29693618 0.29861403 0.26983678 0.2756403 -0.17249344 0.12905094 -0.23825662 -0.11522515
0.15782246 0.16615102 0.07980137 0.05017087 0.28220052 -0.19709384 0.08063263 0.23210585
0.13610137 -0.21904045 0.14528085 0.009337466 0.10074455 -0.21167849 0.0032181637 0.056592077
-0.28055412 -0.095503494 -0.09347522 0.24346346 0.00987348 0.05756527 0.30464274 -0.11289344
0.036090255 0.21761705 -0.023677066 0.24395776 0.060970902 0.20684305 0.17510878 -0.20238318
-0.1298977 0.14953524 0.23099184 0.058334213 -0.16584831 -0.0038232803 0.15272987 0.015200704
0.0639333 0.023583382 -0.030201495 0.26170897 0.008389831 0.0639891 0.023317708 -0.19317262
-0.17352287 0.2144385 0.2785432 -0.15598221 -0.19897765 0.057756007 0.28410366 0.29411167
0.091706224 -0.043482333 0.022611856 -0.02828975 0.2509507 0.0061927736 -0.23978278 -0.06392312
0.17723384 0.09110451 0.15299681 0.15585847 -0.14749922 -0.18233788 0.0067992806 0.028164506
-0.10041706 -0.14743268 -0.15574664 0.12474815 -0.5364086 -0.14344087 0.26380634 -0.056433298
-0.17813633 -0.029370785 0.15403715 0.11684376 -0.26367438 -0.2570076 0.04634264 -0.21614385
0.24884754 -0.07462044 0.18138467 0.14348853 0.12206188 0.20705128 0.26057827 -0.24530557
-0.1882157 0.11110553 0.45718196 -0.2177279 0.06583914 0.059559256 -0.03244536 -0.035285264
0.15475056 0.09791914 0.25666475 0.27981955 0.14666554 0.27655292 -0.010319179 -0.109491356
-0.13621913 -0.006207603 0.28870574 -0.01091064 -0.20860484 0.16793466 -0.23066364 0.23123169
0.090354055 -0.19153251 0.17683981 -0.034593973 -0.007540822 -0.03403651 -0.14210613 -0.029292047
-0.16066228 0.1439931 -0.2523494 0.07403204 0.10865369 -0.21697831 -0.2437568 0.25248837
-0.1907265 0.18885371 -0.08333683 -0.21180856 -0.018313896 -0.13131104 0.26217246 -0.21926549
-0.08108173 0.11060631 0.07298352 -0.008859098 0.025305772 -0.04897821 -0.18110478 0.061940372
0.123026095 -0.2210573 0.08969246 -0.02765736 -0.00090641214 0.18578884 -0.022977948 0.04104884
0.27846298 0.25392902 0.1602987 0.088735335 -0.17690004 -0.12064331 -0.17164905 -0.030221948
-0.2480891 -0.23173085 0.09532663 -0.028755426 0.19497284 -0.13407236 0.030598313 0.14726761
-0.26341173 -0.27101195 -0.08729811 -0.2616169 0.09082679 0.045087155 0.25518772 0.27341104
0.0971511 0.030535715 -0.027475119 -0.09940533 0.17487648 0.17360854 -0.2855248 -0.04708731
-0.21976125 -0.23189607 0.25482297 -0.21732767 0.027161857 -0.12903732 -0.1679045 -0.07090821
0.093960024 0.27952284 0.034623563 -0.055943057 -0.0063674226 -0.27601638 0.0999447 0.23409522
-0.09469752 0.22055261 0.13843724 0.08450878 0.07595089 -0.19456688 0.0012290478 0.061992764
00000000: 74e9 f83d 4b8d 81be 4e8b b8bd 14fc 55be
00000010: 70e1 973c 6522 06be f02b 92bc 18f5 c0bd
00000020: 222d 4bbe 3c88 1e3e cacb b3bd e81d 523e
00000030: 70af c63c e065 3ebc 3d8e 94be 40b5 babb
00000040: ae1b 353d e423 9f3d 24bd c43d 3490 94be
00000050: f08c 783e 7409 8b3e fe2f 403e 0689 963e
00000060: e8af 663e 1c5d dbbd 3b74 0abe 7452 573e
00000070: ccc2 543e af76 82be f249 253e 50cd fa3c
00000080: 0508 98be f0e3 983e 0c28 8a3e ba20 8d3e
00000090: 1fa2 30be ee25 043e 8bf9 73be 2afb ebbd
000000a0: 369c 213e 7e23 2a3e e76e a33d f87f 4d3d
000000b0: 967c 903e f8d2 49be b822 a53d 28ad 6d3e
000000c0: 285e 0b3e 244c 60be 81c4 143e 2cfc 183c
000000d0: 2953 ce3d 3fc2 58be d4e7 523b 18cd 673d
000000e0: caa4 8fbe 5697 c3bd f06f bfbd 7c4e 793e
000000f0: 60c4 213c 90c9 6b3d 22fa 9b3e ad34 e7bd
00000100: 60d3 133d 01d7 5e3e 68f6 c1bc 10d0 793e
00000110: a0bc 793d aace 533e b74f 333e 893d 4fbe
00000120: e703 05be c41f 193e 2089 6c3e dbef 6e3d
00000130: 24d4 29be 0090 7abb 3865 1c3e 600c 793c
00000140: 76ef 823d f031 c13c 2069 f7bc b8fe 853e
00000150: 8075 093c b80c 833d c704 bf3c 0bcf 45be
00000160: fbaf 31be c495 5b3e 379d 8e3e cdb9 1fbe
00000170: ccc0 4bbe 9091 6c3d 0976 913e ce95 963e
00000180: 79d0 bb3d 881a 32bd 803c b93c e8bf e7bc
00000190: 9c7c 803e c0ec ca3b 9e89 75be 20ea 82bd
000001a0: ca7c 353e 0095 ba3d 32ab 1c3e 5d99 1f3e
000001b0: 090a 17be c8b6 3abe 80cc de3b 40b9 e63c
000001c0: 76a7 cdbd 98f8 16be 0c7c 1fbe f57b ff3d
000001d0: 1352 09bf 2ae2 12be a011 873e 9a26 67bd
000001e0: 5f69 36be 009b f0bc eabb 1d3e c84b ef3d
000001f0: 5400 87be 8096 83be c8d1 3d3d d054 5dbe
00000200: e4d1 7e3e 9ad2 98bd e7bc 393e a8ee 123e
00000210: 94fb f93d 4005 543e 846a 853e 6231 7bbe
00000220: 9ebb 40be 4c8b e33d c113 ea3e 10f4 5ebe
00000230: acd6 863d 68f4 733d 6de5 04bd 4887 10bd
00000240: ee76 1e3e d489 c83d 9069 833e 8244 8f3e
00000250: 7e2f 163e 5898 8d3e c611 29bc 013d e0bd
00000260: 077d 0bbe 2669 cbbb 3dd1 933e 8ac2 32bc
00000270: 829c 55be 10f7 2b3e 1733 6cbe 00c8 6c3e
00000280: 8c0b b93d 1921 44be 7f15 353e 69b2 0dbd
00000290: 0019 f7bb de69 0bbd 4584 11be e0f5 efbc
000002a0: a784 24be ed72 133e f133 81be 1c9e 973d
000002b0: d385 de3d 902f 5ebe 629b 79be 2846 813e
000002c0: cf4d 43be de62 413e 80ac aabd 58e4 58be
000002d0: 0607 96bc 6776 06be 783b 863e 2287 60be
000002e0: 2e0e a6bd 9085 e23d 6278 953d c025 11bc
000002f0: 0d4e cf3c 609d 48bd 8873 39be 30b5 7d3d
00000300: 1bf5 fb3d d85c 62be aeb0 b73d b091 e2bc
00000310: 4a9c 6dba 6e3f 3e3e 403c bcbc d422 283d
00000320: b392 8e3e fc02 823e 5825 243e dfba b53d
00000330: 4925 35be d713 f7bd c5c4 2fbe 0594 f7bc
00000340: 120b 7ebe da4a 6dbe 9c3a c33d 8090 ebbc
00000350: f6a6 473e 444a 09be 50a9 fa3c 52cd 163e
00000360: e7dd 86be 14c2 8abe 5ac9 b2bd a6f2 85be
00000370: 6503 ba3d 4fad 383d f7a7 823e 88fc 8b3e
00000380: 28f7 c63d 0926 fa3c 8013 e1bc 0695 cbbd
00000390: d212 333e 70c6 313e 4e30 92be a0de 40bd
000003a0: 1809 61be 2a76 6dbe 2878 823e 258b 5ebe
000003b0: 8b82 de3c 5c22 04be 28ef 2bbe 5338 91bd
000003c0: 1d6e c03d 9e1d 8f3e 70d1 0d3d 8c24 65bd
000003d0: d0a5 d0bb 0552 8dbe cfaf cc3d a8b6 6f3e
000003e0: c6f0 c1bd 8bd8 613e 7ec2 0d3e f012 ad3d
000003f0: 248c 9b3d 8a3c 47be 0018 a13a 20ec 7d3d

sequential_3/dense_11/MatMul f4 [2, 15]
0.21952493 0.28469378 0.7865033 -0.2452843 0.4172937 1.5207415 -0.63572526 0.072894104
0.35117707 0.37883914 1.3268569 -0.5436416 -0.3999756 -0.3855969 1.5546496 0.18835275
0.3161456 -1.465365 -0.24980329 0.513892 -0.6665045 0.8431582 -0.14199089 0.14347969
-0.050682116 -0.940194 0.036700852 0.14440215 -0.34308872 -0.54639626
00000000: 25cb 603e 62c3 913e 4858 493f cf2b 7bbe
00000010: 85a7 d53e a8a7 c23f e4be 22bf 8149 953d
00000020: 7bcd b33e 34f7 c13e 72d6 a93f 192c 0bbf
00000030: 9ac9 ccbe f56c c5be c2fe c63f 8bdf 403e
00000040: d6dd a13e 1591 bbbf 6fcc 7fbe 6d8e 033f
00000050: 0aa0 2abf 37d9 573f 0f66 11be 57ec 123e
00000060: 0d98 4fbd 8eb0 70bf a253 163d 28de 133e
00000070: 53a9 afbe a0e0 0bbf
